…
2025-06-03 16:08:10.914818: I tensorflow/core/common_runtime/gpu/gpu_device.cc:1616] Created device /job:localhost/replica:0/task:0/device:GPU:0 with 7423 MB memory:  -> device: 0, name: NVIDIA GeForce RTX 3080, pci bus id: 0000:0a:00.0, compute capability: 8.6
Found 15000 files belonging to 15 classes.
Found 3000 files belonging to 15 classes.
Klassen: ['Bean', 'Bitter_Gourd', 'Bottle_Gourd', 'Brinjal', 'Broccoli', 'Cabbage', 'Capsicum', 'Carrot', 'Cauliflower', 'Cucumber', 'Papaya', 'Potato', 'Pumpkin', 'Radish', 'Tomato']
Model: "sequential_1"
_________________________________________________________________
 Layer (type)                Output Shape              Param #
=================================================================
 conv2d (Conv2D)             (None, 224, 224, 32)      896

 batch_normalization (BatchN  (None, 224, 224, 32)     128
 ormalization)

 activation (Activation)     (None, 224, 224, 32)      0

 max_pooling2d (MaxPooling2D  (None, 112, 112, 32)     0
 )

 conv2d_1 (Conv2D)           (None, 112, 112, 64)      18496

 batch_normalization_1 (Batc  (None, 112, 112, 64)     256
 hNormalization)

 activation_1 (Activation)   (None, 112, 112, 64)      0

 max_pooling2d_1 (MaxPooling  (None, 56, 56, 64)       0
 2D)

 conv2d_2 (Conv2D)           (None, 56, 56, 128)       73856

 batch_normalization_2 (Batc  (None, 56, 56, 128)      512
 hNormalization)

 activation_2 (Activation)   (None, 56, 56, 128)       0

 conv2d_3 (Conv2D)           (None, 56, 56, 128)       147584

 batch_normalization_3 (Batc  (None, 56, 56, 128)      512
 hNormalization)

 activation_3 (Activation)   (None, 56, 56, 128)       0

 conv2d_4 (Conv2D)           (None, 56, 56, 128)       147584

 batch_normalization_4 (Batc  (None, 56, 56, 128)      512
 hNormalization)

 activation_4 (Activation)   (None, 56, 56, 128)       0

 max_pooling2d_2 (MaxPooling  (None, 28, 28, 128)      0
 2D)

 conv2d_5 (Conv2D)           (None, 28, 28, 256)       295168

 batch_normalization_5 (Batc  (None, 28, 28, 256)      1024
 hNormalization)

 activation_5 (Activation)   (None, 28, 28, 256)       0

 max_pooling2d_3 (MaxPooling  (None, 14, 14, 256)      0
 2D)

 global_average_pooling2d (G  (None, 256)              0
 lobalAveragePooling2D)

 dense (Dense)               (None, 128)               32896

 batch_normalization_6 (Batc  (None, 128)              512
 hNormalization)

 dropout (Dropout)           (None, 128)               0

 dense_1 (Dense)             (None, 15)                1935

=================================================================
Total params: 721,871
Trainable params: 720,143
Non-trainable params: 1,728
_________________________________________________________________
Epoch 1/20
2025-06-03 16:08:16.366151: I tensorflow/stream_executor/cuda/cuda_dnn.cc:384] Loaded cuDNN version 8100
2025-06-03 16:08:17.849470: I tensorflow/stream_executor/cuda/cuda_blas.cc:1614] TensorFloat-32 will be used for the matrix multiplication. This will only be logged once.
…
